4.OCRL/actor.pkl (torch, 274676 bytes, 6 tensors)

weight f4 [256, 4]
000000 32 02 f2 3d 63 45 59 be 9d 4f e2 be 60 af f9 3d
       0.11816825 -0.21217875 -0.44201365 0.12191653
000010 12 b0 cb 3e a7 bc 54 3e 6e 4e fb be b2 95 cd be
       0.39782768 0.2077509 -0.49083275 -0.4015327
000020 75 33 b5 bd 29 66 1e be 08 83 49 be f7 f9 ca be
       -0.08847705 -0.15468659 -0.1967889 -0.39643833
000030 db b7 b2 be 01 56 c5 3e 49 38 c4 be 1d d8 77 be
       -0.34905896 0.38542178 -0.38324192 -0.24203534
000040 7a b6 38 be 5f f9 89 be 10 c2 99 3c 07 b1 b0 3e
       -0.1803836 -0.26948068 0.018769294 0.3451006
000050 2a a8 24 3c 8b 7b fb 3e 8a 6f f2 be fb ac 50 3e
       0.010049859 0.49117693 -0.47350723 0.20378487
000060 35 66 68 be 9f ea 86 3c 41 30 27 3f e3 01 00 3f
       -0.22695239 0.016469298 0.65308005 0.5000288
000070 a9 50 58 be 2b 19 e5 bd 7e 73 af 3e d5 c9 b3 be
       -0.2112452 -0.11186441 0.342678 -0.35114923
000080 8b 56 18 be 28 26 d1 be 68 fb 92 3e 57 df 9a be
       -0.14876764 -0.40849423 0.28707433 -0.3024852
000090 d1 72 b6 3e 2a b1 c0 3e 23 1f cd be 2e c9 f5 be
       0.35634473 0.37635165 -0.40062818 -0.4800505
0000a0 38 20 db 3e 85 d0 ea bc 09 4d 10 bf bd 8a 90 be
       0.42798018 -0.028663883 -0.56367546 -0.2823085
0000b0 8f 11 13 bd 36 9c 0a bc 87 bc 20 3d 16 37 00 3f
       -0.035905417 -0.008460095 0.039242294 0.50084054
0000c0 13 55 11 be 91 a5 9a 3e 16 09 86 3e b9 1f bd be
       -0.1419261 0.30204442 0.26178807 -0.36938265
0000d0 03 03 d9 3c 47 f0 a1 be c1 00 06 3f 0a 2c cd bc
       0.026490694 -0.3162863 0.523449 -0.025045414
0000e0 c4 f3 4c 3e 75 33 a6 3c e2 30 bc 3e 71 57 02 3f
       0.20014864 0.020288208 0.36756045 0.50914675
0000f0 9d f9 5f 3e 0f 40 e1 be 9b d8 61 be a9 15 a1 be
       0.21872564 -0.43994185 -0.22055285 -0.31461838
000100 bd c0 b6 3e 0b ba 09 bd 7d c7 04 bf c9 12 ef be
       0.35693923 -0.03362469 -0.51866895 -0.4669402
000110 b6 d4 e1 3e 98 3b d9 3e 78 0b c5 3e d7 77 86 be
       0.44107598 0.4242828 0.38485312 -0.26263306
000120 a4 7d 87 3e 1e c3 8e be 8d f0 10 3e 53 99 87 3d
       0.26463044 -0.27883238 0.14154263 0.06621041
000130 bc 36 7c 3e 28 89 bf 3e 1e ad a5 be 6d ec d8 3e
       0.24630255 0.3740933 -0.3235864 0.4236788
000140 9c 4b c8 be 69 7c 7d be 84 ec 85 3e 3a 31 a7 be
       -0.39120185 -0.2475449 0.2615701 -0.32654744
000150 2f 1f 94 be f8 bc d4 be 17 aa 27 bf e5 3a 75 bd
       -0.2893004 -0.41550422 -0.6549391 -0.05987062
000160 8e 70 a1 3e 8d c5 ac be 7b 57 ae 3d df 40 02 3f
       0.31531185 -0.3374447 0.08512779 0.50880235
000170 43 5b cf be 69 aa a4 3d 64 65 38 be f1 81 b3 be
       -0.40499315 0.08040316 -0.18007427 -0.35060075
000180 f5 9f 7e 3e 33 2c ed 3d de 23 4a be 73 be fc 3e
       0.24865706 0.11580696 -0.19740245 0.4936405
000190 82 5a a4 bd 1d aa 28 3c fa 95 94 be be 99 d7 bc
       -0.080250755 0.010294464 -0.29020673 -0.026318427
0001a0 29 c4 ad 3d ba 09 8d be 67 d8 da be 19 f5 00 bf
       0.0848468 -0.27546483 -0.42743227 -0.5037399
0001b0 8a ef 88 be 1b 44 d9 be 98 84 17 be 73 65 3c 3e
       -0.26745254 -0.42434773 -0.14796674 0.18398075
0001c0 20 fe 71 be 91 19 e1 3e 0c e1 74 3d 9e e6 f7 be
       -0.23632097 0.43964818 0.059784934 -0.48418134
0001d0 c4 e0 ec be 61 21 59 be f8 c2 14 bf bb 8f eb be
       -0.46265233 -0.2120414 -0.5811 -0.46008095
0001e0 00 28 c2 3e d6 b2 32 be b4 4e 06 3f 62 f1 97 3e
       0.37921143 -0.17451033 0.5246384 0.29676348
0001f0 dc 43 9a 3e fc c5 d2 3e 0c de 05 3f 25 2f 44 be
       0.30129898 0.41166675 0.5229194 -0.19158609
000200 6d c3 e9 be 32 4f db 3d 03 f1 dc 3e fd 42 a6 3e
       -0.4565691 0.10708465 0.43152627 0.32472983
000210 07 ac 56 3e 87 74 d6 be b5 89 c0 bd f7 92 4c be
       0.2096406 -0.41885778 -0.094012655 -0.19977938
000220 de 2b f7 3c ac cc f6 3e 20 fb 2c bd 77 a3 af bc
       0.030172285 0.48203027 -0.04223168 -0.02144025
000230 6f ae be 3e fd 24 d0 be 38 8c 24 3d 33 ba 6d bd
       0.37242457 -0.4065322 0.040172786 -0.0580389
000240 dc 31 b6 be 7b 69 b0 3e 98 fd c8 3c 24 b7 f0 be
       -0.35584915 0.34455475 0.024534985 -0.47014725
000250 aa b8 94 3e eb 31 05 3d b0 01 ce 3c 4b eb a8 3e
       0.29047137 0.03251831 0.025147289 0.32992014
000260 e7 c6 ca 3e a3 e9 ab be f2 ef 06 bf 0a cf a9 3c
       0.39604875 -0.33576688 -0.5270988 0.020728607
000270 eb fe 81 3c 6a 63 9b 3e 0e 78 ae be 1f 88 9c be
       0.015868625 0.30349284 -0.3407597 -0.30572602
000280 97 eb fe 3e a8 d0 96 3e 46 63 1f bd f5 ab 8d 3e
       0.49789116 0.29456067 -0.038913034 0.27670255
000290 10 8e e8 3e e9 b3 29 3e 28 ba 59 bd 49 45 98 be
       0.45420885 0.16572537 -0.053156048 -0.2974036
0002a0 ec ee f5 be 15 af 81 3e 6f 43 c3 be 38 c0 68 be
       -0.48033845 0.2532889 -0.38137385 -0.22729576
0002b0 c6 bc ee 3d 51 bc ea 3e 37 8c 89 bb 8c 23 8e be
       0.116570994 0.458468 -0.004197623 -0.27761495
0002c0 70 d1 e4 3e 8a 41 6d 3e 2e 8b 94 3e af c9 03 bf
       0.44691038 0.23169532 0.29012436 -0.5147962
0002d0 c6 c7 6d 3e 85 43 1c be df c4 0a 3f 4e 3c e9 3e
       0.23220739 -0.15260132 0.5420665 0.4555382
0002e0 64 f4 3c be 7b 9b 7d 3e 99 7d a9 3e 2f 18 bc 3e
       -0.18452603 0.24766342 0.33103636 0.367372
0002f0 67 8e ed 3e 3d 6d 10 bd ab 90 02 3f de 9a 0a 3f
       0.46397707 -0.035260428 0.51001996 0.5414256
000300 90 da 88 3e df 6c 84 be d0 6a c7 be df 6a ce be
       0.2672925 -0.25864312 -0.3894868 -0.4031591
000310 b3 9b ea be 4f 71 99 3e 48 3d f5 be f6 9d 02 bd
       -0.45821914 0.2996926 -0.47898316 -0.031888925
000320 e7 af e5 bd 29 9e d8 3e e6 11 3b 3e 84 7e 10 bd
       -0.11215191 0.42308167 0.18268546 -0.035276905
000330 1c 1f 85 3d 91 0c db be 8d 7f 58 3e e4 b9 ea bd
       0.06500074 -0.42783025 0.21142407 -0.11461237
000340 e3 de 05 3e 88 8f 93 3e 0a 70 27 be f5 fe 4a be
       0.13073306 0.28820443 -0.16351333 -0.19823821
000350 9e 2f 54 3d 74 da e8 3e 35 47 8e be ad c8 8a 3d
       0.051803224 0.45479167 -0.27788702 0.06776557
000360 44 10 08 bd dd 34 24 3e 34 1e b4 3e 87 28 2f 3e
       -0.033218637 0.1603579 0.35179293 0.17105304
000370 0f a4 82 be 13 f1 67 3e 76 c8 d2 3e 44 9f 1a be
       -0.25515792 0.22650556 0.41168565 -0.15099818
000380 85 01 de bb 9a 34 88 be a2 cd d2 bd d4 eb cc 3c
       -0.0067750835 -0.26602632 -0.102931276 0.025014795
000390 7c e9 7f be d4 39 bc be 6c c8 7b 3e 39 83 f6 3e
       -0.24991411 -0.3676287 0.24588174 0.4814699
0003a0 08 41 ea 3e 0c 9c d8 be 99 99 f7 3e 1e d7 5b 3e
       0.4575274 -0.42306554 0.48359373 0.2146878
0003b0 91 54 ed 3d 89 3b 01 bd ab da 18 3f 84 46 d8 3e
       0.115883954 -0.031550918 0.5970866 0.422413
0003c0 eb 12 a1 3e 78 66 c3 be 08 8e 05 bf 6c 00 65 be
       0.31459746 -0.38164115 -0.5216985 -0.22363442
0003d0 51 d8 af bd c1 a1 19 3e 6f 83 1c 3f a1 f7 c8 3e
       -0.08586181 0.1500311 0.6113805 0.39251426
0003e0 55 a1 ab 3e 4a d4 55 be 8c b0 9a 3c d3 ee 76 be
       0.33521524 -0.20881763 0.018883012 -0.24114542
0003f0 ab e4 f8 be 22 2f f5 be 46 34 19 bf 97 b1 91 ba
       -0.4861196 -0.47887522 -0.5984539 -0.0011115548

bias f4 [256]
000000 96 a3 4c 3e 20 09 8b be 71 38 ae be 7f 37 7a be
       0.19984278 -0.271554 -0.34027436 -0.24435233
000010 57 68 f4 3e c3 25 f1 be fd 84 c9 3e 4b 8a 01 bd
       0.47735855 -0.47099122 0.39359275 -0.031626027
000020 d6 83 8f bd 2d 6b 46 3e 77 31 0c be ed fd 8f 3e
       -0.070075676 0.19376822 -0.13690744 0.28123417
000030 c2 fc ba 3e 07 a4 cb be f6 bc 03 be 94 c5 d7 3d
       0.36520964 -0.3977358 -0.12865052 0.10535732
000040 05 68 c7 3c bc 54 bd 3e cd 92 d6 be 3c de 43 be
       0.024341593 0.3697871 -0.41908875 -0.19127744
000050 87 64 35 3e 75 60 fa 3e a6 94 3d 3c 0d 07 af 3c
       0.1771413 0.48901716 0.011571085 0.021365667
000060 1b fc 6c be 81 62 c3 3e 32 a7 ce 3d b4 83 9e 3d
       -0.23143046 0.3816109 0.10090484 0.07739964
000070 3b 63 b6 be 34 d2 a4 3d d5 42 93 3e 14 16 d1 be
       -0.35622582 0.080479056 0.28761926 -0.40837157
000080 13 9a 01 bf a9 3f fd be 42 a7 77 3e 7d 62 c9 3d
       -0.50625724 -0.4946263 0.24184898 0.09833238
000090 16 e1 14 3d 40 55 6b 3d 90 f3 84 be 87 e4 98 3d
       0.03634747 0.057454348 -0.25967073 0.07465463
0000a0 3b 53 2c 3e 25 73 ed be 55 e2 f3 be 93 66 ad 3d
       0.16828625 -0.4637691 -0.47633615 0.0846683
0000b0 f5 04 a9 3d 54 1d 26 3e 70 6d 81 3e 17 89 80 3e
       0.082528986 0.16222125 0.25278807 0.2510459
0000c0 85 1c 40 bd 3c cb b6 be 29 04 b3 3e 39 21 b4 3e
       -0.0469022 -0.3570193 0.3496411 0.35181597
0000d0 d9 d6 73 be f9 85 79 be a2 f0 ab 3e 95 7c e6 be
       -0.23812427 -0.24367513 0.33582026 -0.45016924
0000e0 32 dc e7 3e d3 c4 88 3e bd 82 aa 3e 34 f1 98 bc
       0.45285183 0.26712665 0.3330287 -0.018669702
0000f0 df 24 c6 3e 41 6b 1e 3e 2b 1b d8 be e2 93 76 3d
       0.38700005 0.15470602 -0.42208228 0.060199626
000100 5d a0 97 3d 46 d9 9f 3d f4 02 7c 3e 34 de d1 bb
       0.07403634 0.078051135 0.24610502 -0.0064046625
000110 17 ac 97 be 26 3d 92 3d 99 0c 57 3d d3 6e 9d 3e
       -0.29623482 0.071405694 0.05250225 0.30748615
000120 81 a2 cf 3e 31 31 88 3d ad 88 74 be 71 f9 29 3d
       0.40553668 0.066500075 -0.23880263 0.04149765
000130 09 1b 3a bc 02 79 d4 3d 40 96 eb be 79 7d f0 bd
       -0.011358985 0.10374643 -0.4601307 -0.11742682
000140 fd 8e eb 3e b2 7c 19 3e dc f9 f6 bd 5f 5e 1e be
       0.4600753 0.14988974 -0.12059376 -0.15465687
000150 ea 57 53 be 85 55 21 3e ac 82 f6 be a8 69 07 3e
       -0.20639005 0.1575528 -0.4814657 0.13223898
000160 b4 73 80 3e b2 fc 31 be 1e 2b cd be 63 f5 a2 be
       0.25088274 -0.17381552 -0.40071958 -0.3182784
000170 5b 8b 3c 3d b5 e2 d2 bd 83 ff b4 3e 22 f8 69 bb
       0.046031337 -0.10297147 0.3535119 -0.0035700877
000180 ba 03 16 3e bc da 1b be c9 26 db be 79 a4 c2 3e
       0.14649859 -0.1522016 -0.42803028 0.38016108
000190 2b 86 70 3e ce 0a 01 bf b5 23 0a 3a c8 07 69 be
       0.23488681 -0.5040711 0.0005269603 -0.22756875
0001a0 7f d1 83 3d b4 ae 33 3d f2 b4 35 be 60 01 68 be
       0.064364426 0.04386778 -0.17744806 -0.22656775
0001b0 54 7d 7e 3d 1a 00 cc be 91 7e 88 be bf 78 8e 3d
       0.06213124 -0.39843827 -0.26659063 0.06956624
0001c0 35 b6 2f 3e 09 55 13 3e 23 76 c4 3e 87 a6 99 3d
       0.1715935 0.14387907 0.3837138 0.07502466
0001d0 47 79 8c bd da a4 d5 be 0f 0f 95 3e 5b ec 4f 3e
       -0.06859069 -0.41727334 0.2911305 0.20305006
0001e0 ff 45 67 3c 02 58 86 3c 91 47 3e 3e 2e cb 10 be
       0.014115809 0.016399387 0.18581988 -0.14140007
0001f0 84 9c 30 3e 83 1b 05 3e c2 cd 3c bd de f3 6d be
       0.17247206 0.12998776 -0.046094663 -0.23237559
000200 e4 f4 bd be 99 27 30 be 01 ec c2 3e 57 d3 59 3e
       -0.371009 -0.17202605 0.38070682 0.21272026
000210 14 ac 79 be db 2a cf 3e cc dd c5 3e 25 9b ed bb
       -0.24382049 0.40462384 0.3864578 -0.0072511607
000220 c6 5e 20 bd f6 1d f8 be f8 5a d7 be b2 d9 78 3e
       -0.039152883 -0.48460358 -0.4206159 0.24301794
000230 aa 8c 24 3e a1 a5 6b 3e 93 ac 20 3e 4f 44 c7 be
       0.16069284 0.23012401 0.15690832 -0.38919303
000240 40 51 40 3e 46 3e d1 3d 9e f0 8d be 7e 20 b8 be
       0.18780994 0.10216956 -0.2772264 -0.3596229
000250 40 d5 55 3e b5 a4 8a 3e 26 ce f7 3e ae 3e 84 be
       0.2088213 0.27078786 0.48399466 -0.2582907
000260 7e e2 c1 bc 14 52 c1 3e fd a3 30 3e 92 b0 5d be
       -0.02366757 0.37757933 0.17250057 -0.21649387
000270 ce c6 8a 3e 3b 15 24 3e c4 ab 36 3e 76 14 7a be
       0.271048 0.16023724 0.17838961 -0.24421868
000280 70 7e 94 be aa 90 05 bf 80 aa 8a be 7e 7b 58 3e
       -0.29002714 -0.52173865 -0.27083206 0.21140859
000290 62 67 b9 be 86 01 0d be bf 1f c2 3e ad ee 8d be
       -0.36211687 -0.13770112 0.37914845 -0.27721158
0002a0 ea f0 c1 be 16 1f 82 3d d1 28 74 3d 1e 3d 5e be
       -0.37879115 0.063535854 0.059609238 -0.21703002
0002b0 98 05 a8 3e e6 66 b3 be c5 2c d6 3e 7c 66 47 3d
       0.32816768 -0.35039443 0.4183103 0.04868172
0002c0 7d 4a d9 bb 19 50 f5 3d 29 f9 98 be 46 e3 b1 3e
       -0.006631194 0.11978168 -0.29877594 0.34743708
0002d0 54 3f a8 3c a5 b6 a4 3d 78 87 d7 bd d6 ec ff bd
       0.02053801 0.08042649 -0.105238855 -0.12496345
0002e0 a0 d4 68 bd 8b 6e a9 be ed 3d 55 3d 07 5c 89 be
       -0.0568434 -0.3309215 0.05206101 -0.26828024
0002f0 5a 4c 78 3d 83 b7 ea 3d 62 a6 35 be 6e 56 f9 be
       0.06061969 0.11460783 -0.17739251 -0.48698753
000300 a6 d4 be be 7c 8e db bd 74 b1 24 3d cb ec d1 3e
       -0.37271613 -0.10720536 0.040208295 0.4100097
000310 fd 08 92 3d d1 b7 26 be 34 64 e4 3e f5 44 e5 3e
       0.07130621 -0.16281058 0.446077 0.44779173
000320 c1 de f2 3e 3c 12 5b be da 8a e3 bc f6 db 6d bd
       0.47435573 -0.21393675 -0.02777617 -0.0580711
000330 aa fa 92 3c 76 bc f6 be 56 b7 54 3e 01 7a 90 3e
       0.017941792 -0.4819066 0.20773062 0.28218082
000340 d7 45 dc 3e a8 e6 f8 be 34 89 82 be 24 6d 6c 3d
       0.43022034 -0.48613477 -0.25495303 0.057721272
000350 95 c9 df bd 41 f0 e6 3e 78 bc 16 3e 45 dc d5 3e
       -0.109271206 0.45105174 0.14720333 0.41769615
000360 59 d3 44 bd ef 02 28 be eb d0 4e 3d c1 d3 03 3e
       -0.04805312 -0.16407369 0.05049221 0.12873746
000370 46 75 7a ba 1e 42 63 3e 4d a4 c7 3e 26 e9 05 3e
       -0.0009554218 0.2219319 0.3899254 0.1307722
000380 42 e0 93 3e 25 fe 7a be 50 47 4b 3e fc 75 e7 be
       0.28882033 -0.24511011 0.19851422 -0.45207202
000390 57 a9 75 bd d9 0c cc 3d 41 a8 02 bd 19 29 98 3d
       -0.05997595 0.09963388 -0.03189874 0.07429714
0003a0 01 e3 a9 be 9b aa 4f be 69 d2 8d be 10 25 0e 3e
       -0.33181003 -0.20279925 -0.27699593 0.13881326
0003b0 7f 51 d1 3c 54 7f cb bd ad 22 93 bd fd b7 a2 be
       0.025551556 -0.09936395 -0.07184348 -0.31780997
0003c0 20 dd c7 3d f7 4c 10 3e ae ba b4 3e c5 ba 34 be
       0.09758973 0.1409186 0.35298675 -0.17649372
0003d0 e0 3e 9a be a5 21 7e 3d ae 0c 85 be 4e 47 70 3e
       -0.30126095 0.062043805 -0.25986236 0.234647
0003e0 8d 17 53 3e d6 97 d1 be ad 2e eb be ad 03 99 3d
       0.20614453 -0.40936154 -0.45934048 0.07471404
0003f0 14 92 ec be d5 f1 1a 3b ae c4 ab be 21 a6 d6 3b
       -0.462052 0.0023642678 -0.33548492 0.006550566

weight f4 [256, 256]
000000 f9 20 2d 3d 53 f2 7e 3d 1a da 04 bd 54 55 a4 3d
       0.042267773 0.062242817 -0.03243456 0.080240875
000010 c9 bf 17 bc dd 8c 72 3c 87 76 96 3c 3d 8e 21 bc
       -0.009262034 0.014804092 0.018367065 -0.009860572
000020 5c a7 90 bc 49 be 86 3d 0f 63 3e 3b e4 34 81 bd
       -0.017657928 0.06579263 0.0029050743 -0.06308916
000030 15 6c 4d 3d 95 be f6 bc 66 5b ae bd e5 92 bc 3d
       0.050151903 -0.030120173 -0.085135266 0.092077054
000040 ff 00 31 3c 09 2b 66 bc 77 dc 5d bd 0c 4e 17 bd
       0.01080346 -0.014048346 -0.05416533 -0.036939666
000050 55 10 02 bb ce 01 e9 3c 6d dd 28 3d 8f 2d 5d bb
       -0.001984616 0.028443243 0.041226793 -0.003374908
000060 f7 bc ab bc 8a aa 29 3d cd 6e 45 3d e7 3e 3b 3c
       -0.020964129 0.041422404 0.04820137 0.011428571
000070 e7 0c db 3c fc 40 0e 3d 08 51 94 bd 7a 19 fe 3c
       0.02673955 0.034729943 -0.07242018 0.031018008
000080 35 04 ea bc 87 e7 69 3d f4 00 47 bd c3 ce 4c 3d
       -0.02856646 0.057105567 -0.048584893 0.05000187
000090 32 d3 e9 bc 0d 6a 47 bd ff 69 9a 3d 49 a5 b0 3c
       -0.028543089 -0.048685122 0.075397484 0.02156319
0000a0 db b6 75 bd 96 68 dc 3b f2 4f d3 3c 02 9e 46 bd
       -0.059988838 0.006726335 0.025794957 -0.04849053
0000b0 52 81 28 bb 2a a4 a9 bc fe 5c 93 bd db 0a 39 bc
       -0.0025711847 -0.020708162 -0.07195471 -0.011294092
0000c0 41 26 50 3d 53 95 83 3d f9 0e 80 bd 15 a9 a3 bc
       0.05081773 0.06424966 -0.06252856 -0.019978086
0000d0 19 e2 3a bd 34 f7 53 3d 7f 06 af bc 9a 5c ad 3c
       -0.04562578 0.051749423 -0.021365402 0.02116232
0000e0 37 7b 51 3d 8f 6e e9 bc 79 f6 95 bc 88 92 b7 bd
       0.051142897 -0.028495101 -0.018306004 -0.089634955
0000f0 01 fb 1f 3d 50 b7 02 be fb 6c b9 bc 33 da 9a bb
       0.039057735 -0.1276524 -0.022634974 -0.0047257184
000100 0c 97 89 3a 1a fa a0 bd 37 fc 13 3d 7c b8 28 3d
       0.0010497286 -0.07860203 0.036129203 0.041191563
000110 f9 4a 84 3c 0d 08 97 bd 7f 64 b0 3c e5 00 59 3d
       0.016149031 -0.073745824 0.021532295 0.05297937
000120 19 ea 40 bc 30 bd 4f 3d a9 1a 96 3b 53 dd 35 3a
       -0.011774563 0.050717533 0.004580815 0.0006937582
000130 93 72 2e 3d c3 df 88 3c 0e 93 52 bd 89 e6 ba bd
       0.042589735 0.01670826 -0.051409774 -0.09126002
000140 04 6e 45 3d ab 2b 28 bb ac 08 8c 3d 0b 14 ba bc
       0.048200622 -0.0025660794 0.068375915 -0.022714635
000150 f3 15 79 3c 89 55 09 3c 6e 04 13 bd 7e 15 a7 bd
       0.015202987 0.00838221 -0.035892896 -0.08158396
000160 d6 09 33 3d dd 9c 11 3c 88 ea 0d bd 59 32 8f 3c
       0.043710552 0.008887497 -0.034647495 0.017480062
000170 d0 8e 4e 3d f3 f2 2b bc 97 f6 59 3c 3e f7 ce bc
       0.050429165 -0.010494935 0.0133034205 -0.025264379
000180 40 22 f9 3c 69 b8 b4 bc 9f 9c 66 bc 9d 9f 13 bd
       0.03041184 -0.02206059 -0.014075427 -0.03604089
000190 e3 22 d5 bd 58 5c 8d 3d bd 51 a6 3c 0b 48 a7 3d
       -0.10407045 0.06902379 0.020302648 0.08168038
0001a0 2c 18 23 3b e9 87 31 bd 77 53 a0 3b bf 46 63 bc
       0.0024886234 -0.043342505 0.0048927623 -0.013871848
0001b0 68 1a 8c 3d ab b7 23 3d 36 9a a4 bd 2a f9 5e 3d
       0.06840974 0.03997008 -0.08037226 0.05443684
0001c0 0a 2b 18 3c 90 75 e4 3c c2 f3 ae 3b a8 a8 68 bd
       0.009287605 0.02788809 0.005339117 -0.056801468
0001d0 b9 67 5c bd d4 63 6f bd bb 8c 43 3c 72 68 5d 3d
       -0.053809855 -0.058444813 0.011935408 0.054054685
0001e0 94 36 63 bb 0b 69 f0 bc 56 32 a8 3d e4 3c dc bb
       -0.0034669982 -0.029346963 0.08212726 -0.006721126
0001f0 39 b8 6a 3c cd 15 6a 3b 4d 70 9b 3c 87 da e3 3c
       0.014326149 0.003571856 0.018974448 0.027814163
000200 6d 0c e9 3c aa e6 fb bc cf 8d 65 bd 7f 13 90 3d
       0.028448308 -0.030749638 -0.056043442 0.070349686
000210 50 f2 bc bc 20 6a 6e 3c 07 ea 4c bd ea e8 69 3c
       -0.023064762 0.014551669 -0.050027873 0.014276722
000220 16 2d 4b bd 38 16 a1 3d e1 dd 90 bc 6e 01 2d bd
       -0.049603544 0.07865566 -0.017683925 -0.04223769
000230 4b 08 d5 bc a1 12 ce 3c e0 a5 30 3c 2c a1 70 bb
       -0.026004931 0.025155367 0.010781735 -0.003671716
000240 f2 89 63 3d b5 a6 64 bc 1b 46 ad 3d 1d a2 e4 bc
       0.055551477 -0.013955762 0.08460637 -0.027909333
000250 98 55 8e bc a0 75 1b bc b8 aa cb bc 66 5b 4d 3d
       -0.017374799 -0.009488493 -0.024861678 0.050135992
000260 3f 96 0d bd 9a ce 8a 3d 87 6e 36 bd 96 98 9a bc
       -0.034567114 0.06777687 -0.044539 -0.018871587
000270 b5 85 6c 3d 1a 79 c8 bd 1f e3 10 3c 1e 5c dc 3c
       0.0577447 -0.09788723 0.008843212 0.026899394
000280 15 22 ec bc 33 a3 7c 3d 13 b1 aa 3c 3e 2c 0e bc
       -0.028824845 0.061679076 0.020836389 -0.00867754
000290 8d 0f 96 3d 71 c7 2e 3d 02 6c 78 3d 35 fa 80 bd
       0.07327185 0.04267067 0.06064988 -0.06297723
0002a0 96 23 7e bc a2 01 be bc 7a d5 c7 bc 36 28 0c bd
       -0.015511414 -0.023194138 -0.024393786 -0.034218036
0002b0 f4 22 68 3d e2 30 32 bd 6d 19 2e bd 49 91 24 bd
       0.05667396 -0.04350365 -0.042504717 -0.040177617
0002c0 9e 6e 71 3d bc 5f 9c ba e8 da 35 bc 99 b1 43 3d
       0.058943383 -0.0011930387 -0.011099555 0.047776792
0002d0 59 25 5c b9 08 b9 d6 bb bb 54 20 b9 54 38 07 3d
       -0.00020994748 -0.006552819 -0.00015290354 0.033012703
0002e0 26 a9 81 bd 0b 4b 5b bd fc 66 dd bc 89 64 3e bd
       -0.06331091 -0.053538363 -0.027026646 -0.046482597
0002f0 77 c4 96 3d 95 a1 d3 3c e0 9f 3e 3d 46 1f 50 3d
       0.073616914 0.025833884 0.046539187 0.050811075
000300 fe f9 62 3d 62 3d 4b bd da 9a 8c bc 21 75 50 bd
       0.055414192 -0.049619086 -0.017163683 -0.050892953
000310 95 0b 18 bc 37 f6 a3 bd 24 fd ad bc fc fd f2 3b
       -0.009280105 -0.08005946 -0.02123887 0.007415531
000320 0a 8a a0 3d 1b d1 f2 3b f3 41 08 3e 58 cd 65 3d
       0.07838829 0.007410181 0.13306408 0.056104034
000330 7e 77 fd bb 47 66 65 3d e5 98 80 3d 65 fa 61 bc
       -0.007735192 0.056005742 0.06279162 -0.013792609
000340 1e 45 57 3d 9f 8a 72 3d 86 50 80 3d 08 5a 31 3d
       0.05255615 0.05921423 0.062653586 0.04329875
000350 bf 73 6c bc 56 2c 8d 3d 66 37 e4 bc 03 0d 34 bd
       -0.014431893 0.06893222 -0.027858447 -0.04395772
000360 ef 74 49 bc b5 91 99 3d 6d 78 2c bd ce 8c 11 3c
       -0.012295946 0.074984945 -0.042107034 0.008883668
000370 6b f1 14 bc 5b 9a 1d bd b7 4d 0e 3d 17 fa 4d bc
       -0.009090762 -0.038477283 0.034742083 -0.012571833
000380 cd be 10 bc 9b 39 89 3d a5 2c e8 3c 4f 1a de bc
       -0.008834553 0.067004405 0.0283416 -0.027112154
000390 31 3f bd 3c ca d5 90 3d ec 5c 0d 3d 91 ad cf 3c
       0.023101421 0.07072027 0.034512445 0.025351318
0003a0 70 09 29 bd be 9a 33 bd 25 59 73 3d 29 14 f8 3c
       -0.041268766 -0.043848746 0.059411187 0.03028305
0003b0 22 17 14 bd 2d 47 f1 bc 1b ea 2d 3d ca 23 27 bc
       -0.036154874 -0.029452885 0.04245959 -0.010201404
0003c0 45 65 9f 3d 20 54 25 3d f2 55 41 3d e9 2f 34 3b
       0.077829875 0.04036343 0.047201104 0.0027494377
0003d0 07 b4 a0 bd 20 4c c4 3c 8f 03 a8 bb 49 76 49 3d
       -0.078468375 0.02396208 -0.0051273773 0.04918507
0003e0 83 5c 2e 3d 04 d3 96 bb 0c e1 d1 bc 1b 65 74 bd
       0.042568695 -0.0046027917 -0.025620006 -0.059666734
0003f0 50 f0 5b bc 20 23 d7 bd 42 46 18 bd 4f 02 b9 bc
       -0.013423994 -0.105047464 -0.037176378 -0.022584109

bias f4 [256]
000000 5d c5 55 3d 08 38 f9 3c c7 70 c0 3c 06 f7 b3 3c
       0.052190173 0.030422226 0.023491276 0.021968376
000010 eb 4b de bc 06 9b 21 3d de a0 07 bd a6 c7 00 3d
       -0.02713581 0.039454482 -0.0331124 0.0314404
000020 a9 4e 0d 3d 92 e7 28 3d 87 8a 04 3d 6a 44 18 bd
       0.034498844 0.041236468 0.032358672 -0.03717462
000030 7a 63 6c bb 6f 7d 97 bb ae f8 0a 3c cc 56 63 bc
       -0.0036070035 -0.004623107 0.008482141 -0.013875674
000040 db 8d 5c bd 15 5a 0f bd b2 99 49 bd 33 d6 84 bc
       -0.05384622 -0.03499802 -0.04921884 -0.01621542
000050 5d 92 9a 3c 62 53 7a 3d 1e c8 47 bc 06 84 5d bc
       0.01886862 0.061114676 -0.012193708 -0.013520246
000060 8b 8d 52 bd 7e 53 2f bc 87 67 47 bd 97 c4 3b bd
       -0.051404517 -0.010701058 -0.048682716 -0.04584178
000070 14 b4 85 3d 68 17 99 3c 14 ce 5d 3c 07 92 a8 3c
       0.06528488 0.018687919 0.013537902 0.020577444
000080 3f a5 d3 bc 4c 28 2d 3d 6a 03 fa 3b 5f 12 36 3c
       -0.025835631 0.04227476 0.0076298015 0.011112778
000090 57 0c 78 bc 5e fc dd bc fb 32 4d 3c 80 5e 3b 3d
       -0.015139661 -0.027097877 0.012524362 0.04574442
0000a0 75 de 64 bc 9f 9d 26 bd ad a5 1c bd ad 59 4c 3d
       -0.0139690535 -0.040677663 -0.03824394 0.04989021
0000b0 e7 55 26 3c e5 47 2f bd b6 77 6c 3c 41 ca 0c 3c
       0.010152317 -0.042793173 0.014432838 0.008593143
0000c0 49 ba b9 3c cd 9e 24 3d d8 51 73 3a b2 96 34 3d
       0.022671835 0.040190507 0.000928191 0.044089027
0000d0 f6 bb 50 bd b8 50 8d 39 6f 9d 6c bd ac f2 11 bd
       -0.050960504 0.00026953756 -0.057767328 -0.03563182
0000e0 ac e3 93 3c 15 c7 2a bd 10 f3 82 bc 4f 64 32 3d
       0.018052898 -0.041693766 -0.015985042 0.043552693
0000f0 43 ee 49 3d 3e e9 18 bd e4 e2 1d bc 77 2e 86 bd
       0.04929949 -0.037331812 -0.0096366145 -0.06551831
000100 12 0e 1a 3d bd d7 69 3d 59 7b e0 bc 0c f1 d7 3c
       0.037611075 0.05709051 -0.027402567 0.026360057
000110 3d 4f b5 3c 3a 1b 5d 3d 80 45 0b bd c2 76 af bc
       0.02213251 0.053981043 -0.034001827 -0.021418933
000120 78 63 91 3a 20 56 bd 3b 1c e6 1c 3d 37 73 4d 3d
       0.0011092266 0.005778089 0.038305387 0.050158706
000130 56 04 5b bd b8 7c 2c 3d 76 51 e9 3b a9 7b 80 bd
       -0.053470932 0.04211113 0.0071203066 -0.06273586
000140 35 2a 0b 3d 99 70 61 3d ec c4 fe 3c 93 6c fe 3a
       0.0339758 0.055039022 0.031099759 0.001941102
000150 62 c8 04 bb fe b8 b1 3a b2 98 98 bc 98 48 2c 3d
       -0.002026104 0.001355916 -0.018627498 0.04206142
000160 c0 31 91 3b 28 32 4b bd 69 22 47 bd ab 40 5e bd
       0.0044309795 -0.04960838 -0.0486168 -0.05426089
000170 f4 1f bf 3b 68 75 4f 3d 80 6e a2 bb df 6d 4b 3d
       0.0058326665 0.050649077 -0.0049570203 0.049665328
000180 95 20 e1 3c a8 40 05 bd a3 8f 44 bd 08 c0 43 bd
       0.027481357 -0.032532364 -0.047988545 -0.047790557
000190 03 df fd bc 25 8a 7f 3d 01 3e 5b 3d 4b da c7 3b
       -0.03099013 0.062387604 0.05352593 0.0060990206
0001a0 9c 8f 46 3d f2 b2 75 bd d8 73 59 3d 45 3c 4d bd
       0.0484768 -0.05998511 0.053088993 -0.050106306
0001b0 1d ea 55 3b ce 5b 50 bd b9 ad 85 bc 1c bd 8c 3d
       0.0032640763 -0.0508688 -0.016318189 0.06872007
0001c0 5e a2 5b 3d 03 09 53 bd f2 0f 4e 3b 2e 2d c1 bc
       0.053621642 -0.051522266 0.003144261 -0.023581114
0001d0 b8 d8 29 bd 6d 9e 0a bd b7 0b 4f bd 59 ed 2c 3d
       -0.041466445 -0.033842493 -0.05054828 0.04221854
0001e0 81 7c 87 bc 1d e8 3c 3d 75 a2 58 3d ff a4 55 bd
       -0.01653886 0.046119798 0.052889306 -0.052159306
0001f0 8c f7 65 3d aa 4e 90 3d bf fc 1f bd 34 a8 55 bd
       0.056144282 0.07046254 -0.039059397 -0.052162364
000200 01 77 03 bd 64 d0 27 bc 4e eb f8 bc 99 4d 5e bd
       -0.032095913 -0.010242555 -0.03038564 -0.05427322
000210 a2 69 b1 bc 34 7c 72 bd 0a 46 44 bd d3 68 8e bc
       -0.021656815 -0.05920048 -0.047918357 -0.017383968
000220 f1 b4 03 bd e7 bd 29 3b be 1b 3a bd 84 83 34 3d
       -0.03215498 0.0025900544 -0.045436613 0.044070736
000230 33 57 6b bb 7d da 33 bc f0 dd 35 bd 11 53 12 3d
       -0.003591013 -0.010977385 -0.04440111 0.03572375
000240 f0 c8 06 3c 68 e0 83 3d ed 11 47 bc 42 cb 5c 3d
       0.008226618 0.064392865 -0.01215027 0.05390478
000250 86 18 3a bd 1e c6 ab 3c 1f e1 08 bb 2d 7f 67 3d
       -0.045433544 0.020968493 -0.0020886136 0.05651777
000260 9d dd 8e bd a0 c7 56 bc 05 ad 39 bd 40 bd 80 bd
       -0.06975863 -0.013109118 -0.04533102 -0.062860966
000270 10 cd 77 3d 49 3c 11 bd 6c 0c e5 3c 87 cf 06 3d
       0.060498297 -0.035457883 0.027960025 0.032912757
000280 68 26 79 bd 17 e7 98 3c c2 76 cb bc 01 bb 84 3d
       -0.060827643 0.01866488 -0.024836902 0.06480981
000290 46 4e 21 bd 50 10 6e bd 79 67 d5 3c 3e ac 7a 3d
       -0.039381288 -0.058121026 0.026050316 0.06119942
0002a0 57 bd 6d bd c2 22 54 bc 89 02 ff bc e0 af bd bc
       -0.058041897 -0.01294774 -0.031129139 -0.023155153
0002b0 63 56 d1 bc 90 ea 97 3c 1b 05 25 3d af cf c1 bc
       -0.025553888 0.018544465 0.040288072 -0.023658602
0002c0 4e 62 b7 3a 1d 96 4b bd 57 57 53 bc 6f ec c5 bc
       0.0013991089 -0.049703706 -0.012899241 -0.024160592
0002d0 10 fd 7e 3b 1b 0d 1a bb 73 74 05 bd b9 22 50 bd
       0.0038908161 -0.0023506347 -0.032581758 -0.050814364
0002e0 12 3b b3 3c a7 1c 34 bd e7 98 29 bd 3c 5e f8 3c
       0.021878753 -0.043972638 -0.041405585 0.030318372
0002f0 2e 92 27 3d 7c 7a 24 bb 01 6a a7 bc e8 00 95 3c
       0.040910892 -0.002509742 -0.020436289 0.018188909
000300 e8 83 df 3c 16 de d5 bc e0 81 cf bc 19 bd e0 3c
       0.027284577 -0.026106875 -0.025330484 0.027433919
000310 b2 c8 89 bd 42 ea 28 3d 27 27 dd 3b 0a 89 99 3c
       -0.06727733 0.04123903 0.006749052 0.018742103
000320 93 9a 31 3b 27 f3 82 3d 33 23 98 bc 23 d0 0a 3d
       0.002710019 0.06394034 -0.018571472 0.0338899
000330 34 f8 65 bc 07 6c 0e 3c 06 9e 48 bd 89 4c 3a 3d
       -0.014036227 0.008692748 -0.048978828 0.045483146
000340 07 ec 7d 3d 5b ad 9a bc 57 42 0a bd 03 a7 3a bd
       0.06199267 -0.01888149 -0.033754673 -0.04556943
000350 13 d6 e5 bc 9d 19 50 bd ec 24 eb bc 36 87 83 bd
       -0.02805618 -0.050805677 -0.02870413 -0.06422274
000360 33 58 4d 3c 12 77 85 3d 17 34 0e 3c 18 9c c3 bc
       0.012533235 0.065168515 0.008679411 -0.023878142
000370 20 be d8 3c af fe 97 bc 18 12 2b 3d 56 01 39 3d
       0.026457846 -0.01855406 0.041765302 0.04516729
000380 0a 71 16 3d 96 87 39 3d 37 06 1c bd 35 40 48 3d
       0.036728896 0.04529532 -0.038091864 0.048889358
000390 b4 ff 27 bd 7b d4 e4 bc d3 79 cb bc 28 7f 82 bc
       -0.041015342 -0.02793335 -0.024838364 -0.015929773
0003a0 d7 01 94 3b b9 6f 78 3d f5 1d 10 3d 8c 8e 87 bc
       0.004516821 0.060653422 0.03518482 -0.016547464
0003b0 f3 ad 4a 3d 2a 6d 23 bd 9d 3f d9 bc 2f fc 4b bd
       0.049482297 -0.03989903 -0.026519591 -0.049801048
0003c0 8a 18 71 3c 00 11 64 3d e6 7d c7 3c 21 13 00 3d
       0.014715323 0.055680275 0.024352025 0.031268243
0003d0 d0 fd 26 3d 1e d9 4d bd c4 34 d3 bb 44 bf bb bb
       0.0407694 -0.050255887 -0.006445499 -0.0057295877
0003e0 71 a0 f0 bc 68 ac 8c bd 7c ea 0e 3d 68 2c 92 3b
       -0.02937338 -0.068688214 0.03489159 0.00446086
0003f0 44 51 06 bd 6c db 23 bd c0 80 2d bc 89 cf 73 bc
       -0.032792345 -0.04000418 -0.010589778 -0.014881023

weight f4 [2, 256]
000000 40 f8 9e 3d 39 77 8d bc c9 d6 ba bd a8 cb ac bd
       0.07762194 -0.017268764 -0.09122998 -0.08437282
000010 79 11 2f bc 46 f1 8f bd 5e 9c 8a 3c 39 b3 c6 3c
       -0.010685318 -0.07028441 0.016920265 0.024255382
000020 ed a0 45 3d eb 5d 9b 3d 83 79 46 3d b0 1f 98 bd
       0.048249174 0.07586273 0.048455726 -0.07427919
000030 69 c3 af bd 2f ab 97 bd 1f d2 83 bd cc ee 84 39
       -0.085821934 -0.074056976 -0.06436562 0.0002535492
000040 09 d2 13 bd 7e a4 b3 3b cb 61 ce bb 84 5c b7 bb
       -0.036088977 0.0054822555 -0.006298279 -0.0055957455
000050 1a 58 37 3d e6 ae f5 39 9b 1a 44 3d 02 9f 19 bd
       0.044761755 0.0004686035 0.047876935 -0.037505157
000060 15 53 21 3d d8 7b a3 bd b3 6d 96 3d 77 87 73 bd
       0.039385874 -0.07982606 0.07345142 -0.05945536
000070 54 07 17 3d fc 22 b8 bd 8c e4 31 3d d1 21 93 3c
       0.036872223 -0.08991048 0.04343085 0.01796046
000080 6d 4e f1 bc 00 fb 88 3c 1f 5e 46 bd a8 92 84 bd
       -0.029456342 0.016721249 -0.048429605 -0.06473285
000090 8d 9d 07 bd 9b a2 b5 3d 34 53 14 bd e0 95 ae 3c
       -0.033109237 0.08868905 -0.03621216 0.0213117
0000a0 95 97 91 3d 0e 51 53 bd cb ed e5 bc 99 bc bc bd
       0.0710899 -0.05159097 -0.02806749 -0.0921566
0000b0 7a 76 ca bc 21 73 3f 3d d7 b2 51 3d cd 8a b1 bd
       -0.024714697 0.046740655 0.051195946 -0.08669052
0000c0 d9 6f 8a 3c a9 db 20 3d e7 c5 03 bd 1e 90 32 3d
       0.016899036 0.039271984 -0.032171156 0.043594472
0000d0 9b 3a 86 bd e3 31 f1 3b 3c 85 a0 bd 60 3a 93 bd
       -0.06554147 0.0073606833 -0.078379124 -0.071888685
0000e0 2a b6 e0 3c f0 c2 bf 3d c7 0c 15 39 37 e4 94 bd
       0.027430613 0.09363353 0.00014214507 -0.07270091
0000f0 7e f2 19 3d cd 23 9b 3c 95 3f 03 bd dc 0f db 3c
       0.037584774 0.01893797 -0.03204306 0.02674096
000100 60 80 bb bb e1 ac 37 3d 2c 27 a8 3d 4c cb 81 ba
       -0.0057220906 0.044842605 0.082105964 -0.0009902506
000110 01 af bd bd ba ba 5e 3d 6c f5 5c bd d4 e0 2f bd
       -0.09261895 0.054377295 -0.05394499 -0.042939022
000120 a3 fa d9 3c 75 0b 92 bd d9 f6 05 bd a1 ab 2d bd
       0.02660877 -0.071310915 -0.032706115 -0.042400006
000130 fc 89 de 3c 8d 04 48 bd 4e 0b 56 bd 5a f5 15 bc
       0.027165405 -0.048832465 -0.052256875 -0.009152735
000140 0d b6 92 bb 87 43 94 bd 50 e3 28 3d f0 f6 f7 bc
       -0.0044772686 -0.07239442 0.041232407 -0.030269116
000150 63 9c 72 3d ee a1 33 3b 2d b7 77 bd 7d 2d 28 bd
       0.059231173 0.002740975 -0.060477424 -0.041059006
000160 ba b4 56 3d fb 80 81 3d 89 bd 90 3c 66 49 1f 3d
       0.052418448 0.06323429 0.017668502 0.038888358
000170 25 2f c8 bd 57 a1 01 3c 39 0c 76 3c 70 60 df ba
       -0.09774617 0.007912002 0.015017563 -0.001704229
000180 a1 5d e6 3c 88 9b e1 3c 0c 57 7b 3d 4d da c5 bc
       0.028120818 0.027539983 0.06136231 -0.024151945
000190 e1 86 27 bc d3 64 a9 bd b3 2a 88 3d 89 58 80 3d
       -0.010225029 -0.08271184 0.06648769 0.06266887
0001a0 49 dc 25 bc f9 68 b3 3c c1 05 c0 3c bb e6 8a bd
       -0.010123321 0.02190064 0.023440244 -0.067822896
0001b0 72 a1 e4 3c a2 e9 bc 3d 7e 99 9c bd 69 24 2a 3d
       0.027909014 0.092242494 -0.07646464 0.04153863
0001c0 38 21 73 3d 79 bd 47 bd f9 da ee 3c 05 96 a0 3d
       0.05935785 -0.04876468 0.029157149 0.07841114
0001d0 a2 be 7d 3d df a7 87 bc 5e 93 e1 bc 16 a8 80 3d
       0.06194938 -0.01655954 -0.02753609 0.0628206
0001e0 6c 16 f7 3c 3d 05 d9 bc 22 d7 0c bd ad 2e b1 bd
       0.030162059 -0.026491756 -0.034384854 -0.08651481
0001f0 63 ff 7a bd e6 87 a8 3d 72 da 6c bd 9e 3f 9b 3d
       -0.061278712 0.082290456 -0.057825513 0.075804934
000200 43 f4 58 3c 23 bb 52 3d b7 1b 58 bd 37 55 32 3c
       0.01324183 0.051448 -0.052760806 0.010884575
000210 c7 35 61 bd 28 40 e3 bc d2 2e 0f bd 5e 06 84 ba
       -0.054982927 -0.027740553 -0.03495676 -0.0010072698
000220 12 a3 4b bd 4f 08 c2 bd 9f 40 37 bc ed 83 1e bc
       -0.049716063 -0.09474241 -0.01118484 -0.009675008
000230 2e 53 91 3d 82 6f 47 bc b0 f6 0a 3c ce 1e c6 3c
       0.070959434 -0.012172582 0.008481666 0.02418461
000240 5a f4 15 bc 39 4d b3 bd e9 37 86 3b b4 cd 2a 3d
       -0.009152496 -0.087549634 0.0040960205 0.04170008
000250 2a 29 2f bd 92 c1 e8 3c 97 2e c9 bd e0 44 71 bd
       -0.042763866 0.028412614 -0.098233394 -0.058903575
000260 49 6b b4 3c 97 90 a1 3c 4c 6b 0f 3d 1b 5a ff 3a
       0.022023814 0.019722266 0.035014436 0.001948181
000270 92 85 80 3d ca cb e7 bc 57 ec 0f 3d 65 6e ac 3d
       0.062754765 -0.028295416 0.0351375 0.084194936
000280 14 86 2b 3d 0d d4 83 3d 9c b4 30 bd 54 51 75 3d
       0.041875914 0.0643693 -0.043140993 0.059892014
000290 ee bd 81 bd ab 9e ea bb 50 10 07 bc 38 8e ae bd
       -0.06335054 -0.007160028 -0.008243635 -0.0852322
0002a0 4d 47 fb bc 62 ab 94 3d 62 e9 b4 3d a2 34 38 3d
       -0.030673647 0.07259251 0.08833577 0.04497207
0002b0 f1 f8 59 bd 9d 84 45 bd 1b c6 ac bd ae 9f 85 3d
       -0.053215925 -0.048222173 -0.08436223 0.06524597
0002c0 f1 e0 80 bd dd 04 a5 bd 75 16 78 bd bd 61 0f bc
       -0.06292904 -0.08057568 -0.06056829 -0.00875133
0002d0 18 2f 01 3d f3 e9 85 3d a7 74 27 3c 64 3a 02 bd
       0.031539053 0.06538763 0.010220683 -0.031793967
0002e0 5f 2a 02 3c e1 7a 83 bd b6 a0 d9 3c b8 45 c6 bd
       0.007944672 -0.06419922 0.02656589 -0.096812665
0002f0 3c 89 4a 3c 60 4f 27 3d 74 9f cf 3c 80 d9 68 bd
       0.012361821 0.040847182 0.025344588 -0.05684805
000300 39 dd 26 3d f6 12 81 bd de 68 b6 3c de 89 18 3d
       0.040738318 -0.06302445 0.022266801 0.037240855
000310 bd 8e 72 bc 96 83 1f 3d d4 29 48 3d f4 dc 05 3d
       -0.014804539 0.03894385 0.048868015 0.03268142
000320 31 3b 8f bd 54 24 13 bd de 1b ae bc e0 fa d4 bc
       -0.06993712 -0.035923317 -0.021253522 -0.025998533
000330 4a d2 cc bc c1 23 58 bc 7b 90 ed 3c 3c 45 39 3d
       -0.025002617 -0.013192118 0.028999558 0.045232043
000340 20 ee 64 3d 66 4a 96 bd f3 77 32 bd a7 76 70 3d
       0.055891156 -0.07338409 -0.043571424 0.058706906
000350 ba 2b 29 3d e1 0e 38 3d eb 43 04 3b 24 83 36 bd
       0.041301467 0.044936065 0.0020182084 -0.04455866
000360 0e 93 28 3d 20 66 c9 bc f9 9f 82 bd b4 b0 90 3d
       0.041155867 -0.02458483 -0.063781686 0.070649534
000370 58 7e 75 3d d5 b3 94 bd 0f 40 08 3d 92 d4 c3 3b
       0.059934944 -0.07260863 0.033264216 0.005976268
000380 cb 65 3d bd 48 08 26 3d 81 81 89 3d c6 26 4a bd
       -0.046239655 0.04053524 0.06714154 -0.049353383
000390 01 21 6c 3d a1 68 51 3d 44 0e f2 bc 00 dc 66 39
       0.057648662 0.051125173 -0.029547818 0.00022016466
0003a0 b5 de 58 3d 59 b4 08 bd 84 b3 87 3b 1b a0 04 3c
       0.052946765 -0.033375118 0.004141273 0.008094813
0003b0 25 5a 46 bc 1c f3 8b 3d 0c a4 b8 3b 9c 34 92 3d
       -0.012106453 0.06833479 0.0056347903 0.07138941
0003c0 f6 e1 c1 3c d5 d8 87 bd 4a b0 7d bd ea 57 ac bc
       0.023667317 -0.06633154 -0.0619357 -0.021038014
0003d0 b6 a9 8e bd ef 65 8c 3b 82 65 0a 3d 37 60 6a bd
       -0.069659635 0.0042846124 0.03378821 -0.057220664
0003e0 91 a3 a9 bd 15 ab 8c bc 9d 36 38 3d 1d 1f 0f bd
       -0.08283151 -0.017171422 0.04497396 -0.03494178
0003f0 7d 24 8a bd c9 46 7d 3c 7d fc 9e 3c aa 04 67 bb
       -0.06745241 0.015458771 0.019407505 -0.0035250583

bias f4 [2]
000000 a1 18 e9 bc 26 49 14 3d
       -0.028454127 0.036202572
