4.OCRL/critic.pkl (torch, 273278 bytes, 5 tensors)

weight f4 [256, 4]
00000000: ab8f d8be 15de ddbe 863a 303e 19ba 5dbd
00000010: 1366 473e 7012 e13e 3ae7 d33e 2270 bebe
00000020: 664f 013f f616 f73e d457 a53c 1c95 ad3e
00000030: c4b5 ecbe 27c5 c7be dc16 94be 0a9d b4be
00000040: 93f9 053e 950e c2be f175 67be 05de 65bc
00000050: ccd1 b13d f658 f8be 8fb9 e83e 16d5 04bf
00000060: 5e3d bbbe 8225 0b3f 5a19 033e 5454 193d
00000070: 61d8 0b3e d394 a7be dbbe c9be 7a1f dbbe
00000080: a345 583e 92eb 013f c546 073f ccc2 9ebe
00000090: 52a1 943e 7aa1 c63e 2906 57be 10d2 5cbe
000000a0: 97bd cf3e 7328 18be c8a8 6c3e 4574 973e
000000b0: 89f9 88be 624f c93e 097a f2bd 17a0 8e3c
000000c0: e0fe e73e 77c2 a33e 9874 9b3e 6e03 173b
000000d0: cccb 45be 995b e83d ee6a f83d de56 02bf
000000e0: 3622 f93d 3b9c e0be bb4b 86bd 41f7 d43e
000000f0: 457b 6f3e 78e5 cfbe 186a 193f ddb0 c6be
00000100: 85d3 273d 2f80 b03e 6f50 163d a1a1 843e
00000110: 102c b43d 5fad 123e 8f28 043f e516 10be
00000120: db7c 243c 4de7 05bf 3ff4 f23e 6612 083f
00000130: e99e 023e b8c4 8b3e 2ebb 36be 03fb c6be
00000140: a786 903e 6f60 273e e144 f93d c843 03bf
00000150: 1eb9 ec3e 08a5 dd3d 6d93 183e c157 df3e
00000160: 5e4b cabe 5ca6 debe 20ff 07bf 65de 043e
00000170: b26c 113e 2de4 ce3e ee39 b8be 5e06 e23e
00000180: 5950 893e 0dfd 563e 8be2 c7be 9379 ac3e
00000190: 93af a93d f851 ac3e 0298 473d 8e44 63be
000001a0: b31d 1d3e 713f 49be 6392 afbe a52a 58be
000001b0: f21d 743e 0523 cf3e 3c95 bcbe a4c0 f03d
000001c0: 4cb6 75bc 4449 dcbe 1485 b73e f354 e03e
000001d0: 7370 f7bd 9e50 f2be bbb2 e5bd 89e5 d4be
000001e0: b73e 80bc 987b fc3e b4ae 4bbe fcf8 cfbe
000001f0: d593 dc3d ead0 81be 40ea bfbe e952 ac3e
00000200: 2721 d9be 46db 263e ab5d c7be d4a6 493e
00000210: 316f d6be 3190 e3bd 783a fa3d 12e5 853e
00000220: 37f4 cb3e 23e1 22be 7f80 d6be 6e82 a3be
00000230: 1e69 593e 6bdd c1be ba57 da3e cf72 cfbe
00000240: 7bc9 dd3e 3480 b0be 0f61 873d 4cfa ef3e
00000250: 0a12 433e d3c7 f5bc 8b3a 433d 189e c2be
00000260: ddbe 90be 1d00 dfbe b261 033f 1823 523e
00000270: 4de9 edbe 49fb 48be 181f 043f 6bce 173e
00000280: 8879 a5be 3111 0ebc c314 acbd 1a24 cf3e
00000290: 7bdf 2b3e 958c 60be aedf 79be a10a c3bd
000002a0: c192 053f 95d5 963e 6a7e 503e 495c cd3e
000002b0: 0ecf 5fbe 24c7 f53e 8479 94bd 383c ae3e
000002c0: f66b 093d 692b e7be b9e4 5b3e 3b1c dfbd
000002d0: 1231 733a 3838 e7be f9e3 9dbe 90cb 833d
000002e0: a352 c7be 53dd c03e 14cc dc3b 66ba 46bc
000002f0: 7b33 893e ad41 5dbe fba1 25be c2b9 e1be
00000300: eb42 3c3d d813 f83e 7abe 153e 0ae8 253e
00000310: d67a c2bd a13c 65be e4a2 ed3e c624 303e
00000320: 50bc 8b3d efda a6be e113 b4bd db00 9bbe
00000330: 3700 f83d e2c8 a73e ec8e 20be 50dc 35be
00000340: f078 7fbe a455 d03e 7c30 be3e 5dcd 84be
00000350: a348 e03e c8ac 843e 37f7 a23e 03f7 0abe
00000360: d04b 7fbe 5777 0c3e 0644 c63e df6a 94be
00000370: d176 9dbe 22a5 453e a174 b43e f759 c0be
00000380: 5712 ca3d 5112 fabe 2ee9 0d3f 4f99 b93e
00000390: b0ca c73c 637f 3f3c d744 d2be 72a3 1d3e
000003a0: a135 b8be 7da1 d63e 3bb0 123f fe63 043d
000003b0: eec6 cf3e 8ba8 e83d fdad a6be ecc9 e9bd
000003c0: 90e5 c4be 9a6c b33e 73e0 d03e 615c c4be
000003d0: 5929 1fbe f088 5f3e c031 d0be f6aa 1fbe
000003e0: 36ed ae3e d5bc ccbe 42b2 ddbe f521 ebbe
000003f0: 7ab9 aabd cef2 d0be ddfe 03bf b32e 1dbe
-0.4229711 -0.43333498 0.17209825 -0.054132555 0.19472532 0.4395938 0.4138735 -0.37194926
0.5051178 0.48259705 0.020183481 0.33902824 -0.46232426 -0.39017603 -0.2892369 -0.3527606
0.13083486 -0.3790175 -0.22603585 -0.014029984 0.08682594 -0.48505372 0.4545407 -0.51887643
-0.36570257 0.5435411 0.1280264 0.037433937 0.13656761 -0.3273073 -0.39403424 -0.42797452
0.21120314 0.50750077 0.5284236 -0.31007993 0.29029328 0.38795072 -0.20998444 -0.21564507
0.40574333 -0.1485918 0.2311126 0.29580894 -0.2675288 0.39318377 -0.118396826 0.017410321
0.45311642 0.31984302 0.3036239 0.0023042816 -0.19316024 0.11345596 0.1212977 -0.509138
0.12164728 -0.43869194 -0.06557413 0.4159489 0.23386867 -0.40604758 0.5992751 -0.3880681
0.040973205 0.34472796 0.0366978 0.25904563 0.08797467 0.14323948 0.5162439 -0.14071234
0.0100395335 -0.5230606 0.4745197 0.53153074 0.12755932 0.27298522 -0.17844841 -0.38863382
0.28227732 0.1634538 0.12171341 -0.512753 0.46234983 0.10822493 0.14899988 0.43621638
-0.39510626 -0.43486297 -0.53123665 0.12975462 0.1420162 0.4040846 -0.35981697 0.44145483
0.26819113 0.20994969 -0.39040026 0.33686504 0.08285441 0.33656287 0.04872895 -0.2219412
0.1534336 -0.19653107 -0.34291372 -0.21110018 0.23839548 0.40456405 -0.36832607 0.11755493
-0.014997076 -0.43024647 0.35843718 0.4381481 -0.12081995 -0.4732713 -0.11215731 -0.4158137
-0.015654905 0.49313045 -0.19890863 -0.40619648 0.10770384 -0.253547 -0.37483406 0.33657005
-0.42408106 0.16294584 -0.3893865 0.19692546 -0.41881707 -0.11111487 0.12218183 0.2615133
0.3983476 -0.15906195 -0.4189491 -0.31935447 0.21231505 -0.3786424 0.42645055 -0.4051728
0.4331778 -0.3447281 0.06610309 0.4687065 0.1904985 -0.03000251 0.047663253 -0.3801124
-0.28270617 -0.43554774 0.51320946 0.205212 -0.46467057 -0.19627108 0.51609945 0.14824836
-0.32319283 -0.008671091 -0.084023975 0.4045723 0.1678447 -0.21928628 -0.24401733 -0.09523512
0.52177054 0.29459825 0.20360723 0.4010947 -0.21856329 0.48003495 -0.0724974 0.34030318
0.033550225 -0.45150307 0.2147397 -0.108940564 0.00092770264 -0.4516008 -0.30837992 0.06435311
-0.38930234 0.37668857 0.006738195 -0.012129402 0.2679709 -0.21607085 -0.16175072 -0.44087034
0.045962255 0.4845264 0.14623442 0.16201797 -0.09496085 -0.2238641 0.46413338 0.17201528
0.06823027 -0.32588908 -0.08792854 -0.3027409 0.12109416 0.3277045 -0.1567952 -0.17759824
-0.24948478 0.4069034 0.37146366 -0.2593793 0.43805417 0.25913072 0.31829235 -0.1357079
-0.24931264 0.137174 0.38723773 -0.28987786 -0.30754712 0.19301274 0.3524523 -0.37568638
0.09866779 -0.488421 0.5543393 0.36249778 0.024388641 0.011688086 -0.41068146 0.1539438
-0.35978416 0.4192008 0.57300156 0.032321922 0.4058146 0.11360272 -0.32554618 -0.11415467
-0.38456392 0.35043794 0.4079624 -0.3835173 -0.15543117 0.21829581 -0.40662956 -0.1559256
0.34165353 -0.39987817 -0.43300062 -0.45924345 -0.08336158 -0.40810245 -0.51560766 -0.15349846

bias f4 [256]
00000000: 5210 0bbe 64f4 04be fef0 5f3e 68d3 963c
00000010: 3ac4 18be d217 803e d3e0 953d 734e 203d
00000020: dc35 0c3f 4659 7c3e 8f3e 0c3e e8e5 03bf
00000030: bc58 f7bd 1c43 b93e 11a2 1d3e e95f 693e
00000040: 87d2 b7be 6456 963e 7d05 e93d 8b2e 923d
00000050: ccd6 66be d2b6 173f f655 b9be c8d7 893e
00000060: a1ed 1abe 8aed 2fbe 307b 223f d4cf b03e
00000070: 41b5 bfbe f31e 0a3e 85f8 6ebe 61d2 d93e
00000080: 8692 e8be 5e2f 5ebe 70c2 d23e 5376 a03e
00000090: 2b0b c63e 157a 133f 1cac 213f 0b4a 803e
000000a0: 4c2a abbe 65c5 413e b17f c33a 119b 033f
000000b0: f27c 1c3f 7b7a 583e 7b4a 9c3e 6ff0 a53e
000000c0: 005a cf3e 2c58 ff3d 7379 ffbe 8d12 143f
000000d0: 15f1 c53e 2318 0ebe e715 2d3d 947f 013f
000000e0: f671 d43e bcfd c03e 26d5 9fbc c651 96be
000000f0: c67d ce3e 3122 fd3d 2ba3 3a3e 4701 973b
00000100: 253e a53e a666 c3be 6584 edbe c301 1e3f
00000110: f1c3 073c 5879 ab3e 1e35 263f 2f43 e5be
00000120: 22a8 d5bd cda1 67be f6b9 a43e bf61 063f
00000130: 9a0f ae3e cbf2 46be 511f 963e 9647 a9bc
00000140: e354 e13e 1ca8 7abe 89e5 f63e dec6 b6bd
00000150: 17e9 1e3f f0f8 193f ce8a 9b3e b1ac fb3d
00000160: 003f 453e cf72 9a3e cc4a 77be 7426 f93e
00000170: b65c aa3e 1174 d23e cc4b 09be f76f db3e
00000180: 2ccf ca3e 1fc6 573b 300f 4ebe 4acc 0c3e
00000190: 8a09 b03e 7714 a53c 3aab ccbc 93c4 e73e
000001a0: f1ad fb3d 455a ad3e 4666 273d ea18 e3be
000001b0: 02b4 f33e 8198 573e 91b8 4c3c 6926 15bc
000001c0: 059f f63e 8c5a 87be 628b 4cbe 6052 173f
000001d0: 8955 ebbe a209 633e 097f 4cbe ccb8 883e
000001e0: db37 ed3e e7d2 f0bd 571b dcbe 17af a93e
000001f0: e81e b03d 6625 0c3f c5da df3d 96e6 a93d
00000200: b8a6 34be 8032 14be 5d56 853e c244 173f
00000210: a9b7 b63e 188d 56be a6c7 2cbe 6a5c 8d3e
00000220: 9872 7abe 57e9 0d3f 1b7c 443e ffbd d0be
00000230: 2863 393e fee0 be3e 59ca 0c3f e5a7 953d
00000240: b4d2 fe3e d647 ea3e 2440 e4bd 96ca 263e
00000250: cc0e 213f 991b 163f 3d6b 6d3d f32c 333b
00000260: 8f4f d53e 5d06 e3be 7f50 0a3f c6c2 bcbe
00000270: bae8 863e 423a 093f 1f7d 183f c3ce 9a3e
00000280: cadd 9d3e 12f9 1a3f c9a8 fa3e 6796 463e
00000290: f21c bb3e bf14 9bbe 1157 cd3e 929f 35be
000002a0: 99ba 0abe 376a 1f3f 4740 a93e 9f7e 3bbe
000002b0: 4a21 df3e 7ef5 c93e fbb2 083f 13b8 593e
000002c0: 3673 cc3e 50e0 143f 1b10 4d3e 175f 083f
000002d0: 4d2e f13d be37 96bc 3fcd 493d 2067 dd3e
000002e0: 6cb1 cb3e d6ca debe c2e9 873e acfc 3dbe
000002f0: 8ef2 42bd 058a 013f 555a b5be 107e ff3e
00000300: 3387 c6be 344d c4bd 3e23 b43e e99e 81be
00000310: d09c 9dbe 7a4a 41be 4be2 20be 799a 94bc
00000320: dff6 213f d872 013f 5881 96bd 181a 223f
00000330: e9cb 143f 8fa1 eb3e 7860 e53e 5696 643e
00000340: edf6 8f3e 16ec 183e 9002 903e 55ce d53e
00000350: db34 e93d 27dc b63e a1ff c83e 50cf a8bc
00000360: de96 173f 43b9 0a3f 8af1 133f 66e1 793e
00000370: a7f3 753e 1d79 86be f672 1c3e d6e2 b7be
00000380: 7e25 e7be 6703 9e3e ced8 82be 8cf9 bcbe
00000390: c646 863e 7c50 153f e326 c43e dade f63e
000003a0: a306 253f 566f c4be 1157 2c3f ee1b f03e
000003b0: c881 133f b3ce 9dbe bad7 89be 5e99 edbe
000003c0: 1aa9 36bd 4b96 aabe 9bee c23e f1be f43e
000003d0: 25cb 943e 200c bf3e fddc b9be 3bdd 7c3e
000003e0: 3e7b cbbe 3866 c8be 6e66 cf3e 6b8c 073e
000003f0: 91d2 dd3e 6271 1f3f c9c9 af3d 03af 2c3e
-0.13580444 -0.12983853 0.21869275 0.018411353 -0.14918604 0.25018173 0.073182724 0.039137315
0.5476968 0.2464343 0.13695739 -0.51522684 -0.120774716 0.36184013 0.15393855 0.22790493
-0.35902807 0.29362786 0.11378 0.071377836 -0.22542876 0.59263337 -0.36198395 0.2692244
-0.1512971 -0.17180458 0.6346922 0.3453356 -0.37442973 0.13488369 -0.2333699 0.4254332
-0.4542429 -0.21697757 0.4116397 0.31340274 0.38680395 0.5760816 0.63153243 0.2505649
-0.33430707 0.18922956 0.0014915374 0.5140849 0.6112815 0.21140473 0.30525574 0.3241
0.40498352 0.12467989 -0.49897346 0.57840806 0.38660493 -0.13876395 0.042257216 0.50585294
0.41493195 0.37693584 -0.019510817 -0.29359263 0.40330333 0.12360037 0.18226306 0.0046083066
0.32273975 -0.38164252 -0.46390072 0.6172144 0.008286462 0.33491015 0.649248 -0.4477782
-0.104324594 -0.22620316 0.32173127 0.524929 0.33996278 -0.19428556 0.29320768 -0.020664018
0.44010076 -0.24478191 0.48221996 -0.0892465 0.62074417 0.60145473 0.30379337 0.12288798
0.19262314 0.30165717 -0.24149626 0.4866215 0.33273858 0.41104177 -0.1340782 0.4285886
0.39611185 0.0032924486 -0.20122981 0.13749805 0.34382278 0.02015136 -0.024983991 0.45267162
0.12289036 0.33857933 0.04086902 -0.44354945 0.47598273 0.2105427 0.012495176 -0.009103396
0.48168197 -0.2643627 -0.19975045 0.5911007 -0.45963696 0.22171643 -0.19970335 0.2670349
0.46331677 -0.117589764 -0.4298961 0.33141395 0.08599645 0.54744565 0.10930399 0.08295934
-0.17641723 -0.14472389 0.26042452 0.5908929 0.35686997 -0.2095226 -0.16873035 0.2760957
-0.24457777 0.55434173 0.19187967 -0.40769956 0.18104231 0.3728103 0.5499626 0.07307414
0.4977013 0.4575793 -0.11145046 0.16288218 0.62913203 0.5863586 0.0579636 0.0027340024
0.4166226 -0.44340792 0.5402908 -0.3686735 0.2634943 0.5360452 0.5956592 0.30235872
0.30833274 0.605363 0.48956898 0.19393311 0.3654552 -0.30289266 0.4010549 -0.17736652
-0.13547744 0.62271446 0.33056852 -0.18310021 0.43580085 0.39445108 0.533981 0.21261625
0.3993165 0.58154774 0.20025675 0.53270096 0.11776409 -0.018337127 0.049268004 0.4324274
0.397838 -0.43514127 0.2654553 -0.18553418 -0.0475946 0.50601226 -0.3542048 0.49900866
-0.38775024 -0.09585038 0.35183138 -0.2531655 -0.307837 -0.18876067 -0.15711324 -0.018140065
0.6326732 0.5056586 -0.07348889 0.63321066 0.5812364 0.46021697 0.44800162 0.22322974
0.28118077 0.1493381 0.28126955 0.4175898 0.113870345 0.35714838 0.3925753 -0.020606667
0.5921458 0.54188937 0.57790434 0.24402389 0.24018727 -0.26264277 0.15278229 -0.3591525
-0.45145792 0.3086197 -0.25556034 -0.3690914 0.2622587 0.58325934 0.38310918 0.48216897
0.6446325 -0.38366193 0.6732035 0.4689631 0.57619905 -0.3082176 -0.269224 -0.46406072
-0.04459486 -0.3331779 0.38072667 0.47801927 0.29061237 0.37313938 -0.36301413 0.24693768
-0.39742464 -0.39140487 0.40507835 0.13237159 0.43324712 0.62282383 0.08583409 0.16863637

weight f4 [256, 256]
00000000: aa39 debc bf2c ad3d d7bc 933d 801d 30bc
00000010: 405c d23b fa0a 033d cc0e b93c 26b4 c73c
00000020: a990 f83d 7ef2 2a3d f7c8 fd3d ad36 94bc
00000030: 0192 6e3d f9bd 073e a118 c53d a961 d63d
00000040: aa38 b13c c5fd 213e 365c 573d eb92 973d
00000050: 6e45 f3bc d679 053e 7ab9 21bd 6f2c ad3d
00000060: f22e 943d ea59 483d 128c 773d ceeb d23d
00000070: c51a 4dbb a4ba ac3d ee6d 17bd 93e1 283e
00000080: 1040 213c 59cb 71bb 674f 653d ba68 163e
00000090: cd88 bd3d a458 913d 3a87 203e 1d50 ca3d
000000a0: b1a0 af3c 780e 183e 748d 42bc ab46 c73d
000000b0: cb48 c83d edd1 053e 8bb5 003e fcaf 253e
000000c0: 37f1 133e 7894 223d 03bb 62bd 498d cc3d
000000d0: 3964 1c3e 0338 13bd d068 d63d 8558 693d
000000e0: f149 0a3e 5391 1f3e ecb5 9d3d d49f 3abd
000000f0: a207 f93d 7de7 dd3d 0927 193e 776c 04bd
00000100: 927b 043d 3783 2ebd 2d25 2cbd aaef c93d
00000110: a594 353c dd07 cf3d 8c04 fe3d b71a 30bd
00000120: 8c5b 7b3d e4e8 7abd 46c7 713d a0cf 2f3e
00000130: 3d69 fe3c d2b7 82bd 018e 253d 11c7 c93c
00000140: 4327 ea3d c365 2a3d 9d10 f53d d6f6 163d
00000150: cf57 213e 92f6 013e ea3f f63d 2f60 2b3d
00000160: b6fc d13c 4b4b 193e 85ca 363b bc1a 383e
00000170: 498b ed3d db11 0b3e b715 0e3d ef6a 783d
00000180: f785 f83d f61c 963d 3bed 233d 4621 823c
00000190: 6851 d93d a316 913d f764 8a3c 3fae 433d
000001a0: 1cf6 833c 9a97 1e3e 54d0 72bb b36a fdbc
000001b0: f133 023e 6263 dc3d 7fe3 b43d aeec 883d
000001c0: 75ab 223e 92e9 3cbd c47b 993d 24ee 963d
000001d0: f784 743d 124e 8e3d 2ce2 333d c6f8 b93d
000001e0: 526c cc3d 08b0 25ba 049e 513d b097 fb3c
000001f0: 96fe d13d 0739 0c3e 5789 ca3d d526 c939
00000200: 3e44 a2bc 8ed1 9c3d fbbb 853d 8474 fb3d
00000210: deeb d43d 60ca f03c 59fb 143d 9398 263d
00000220: 0fbd 743d d72a ae3d 2f2f 233d a264 b33c
00000230: bfb0 e73d 2afc 123e 6f15 d43d 0365 6d3d
00000240: 69d0 603d 1cc3 c23d 69ae 77bb 6b51 533c
00000250: fa27 143e df67 ac3d 2e0e ed3d c3a9 523d
00000260: 8a20 8d3d bf40 18bd 9bfa 813d 79d4 413c
00000270: ce1c de3d 9d8f 113e a425 083e 83fa 113e
00000280: 4d1d fb3d 1769 1e3e b0db b33d a310 093e
00000290: 2bc2 6c3d 847f 863d e4b5 b23d 4b89 803b
000002a0: a3b4 7e3d cdf4 223e d17b c93d 124a 763d
000002b0: 5dfe 2f3e 3cf1 283d b422 6d3d 7381 993d
000002c0: 9178 b73d 026a 3c3d 88ca bb3d 5b3c 9d3d
000002d0: d26d bf3d 737b 8f3d e485 c43d 3451 a03d
000002e0: 9a7d ab3d d01d 3abd fcd1 333d c09c 9a3d
000002f0: 379d 313d a48b 0d3e 2b10 0bbd 694c b13d
00000300: e813 e9bc 473d 7f3d 4fe7 183e 3df6 683c
00000310: 19f9 9bbd 6f22 933d d9d5 4ebd b87b 9f3d
00000320: 7b60 ad3d 70bc b43d 45f4 823d 156a 1b3e
00000330: 5704 ff3d bf17 873d eadc be3d 548d aa3d
00000340: 5874 4c3d ee13 033c 91c0 7d3d c24e 863d
00000350: 1a40 433d 999e cb3d d765 ac3d fa01 a03d
00000360: 84aa 4e3d f860 fa3d b2c0 5f3d 90ec 403c
00000370: 1cdc dd3d 913d 04bd b8da 133d 6ff6 4f3b
00000380: 3adc 8f3a a1d5 cd3d 3926 c7bc 555b 073d
00000390: 7577 a43d 8b35 6d3d 488c 073e d806 1c3e
000003a0: 319a 673d 9d63 ddbc 3729 263d 02ef fd3d
000003b0: 9b76 343e fe1b ac3c f63f 673d 27b1 45bd
000003c0: 5289 7e3c 55db a3bd 0020 cc3d e77b 993d
000003d0: 6b6d 013e 1a9f 053e 1afb f63b e028 8b3d
000003e0: 6997 6cbd 56f9 44bd 6b34 0d3e 3365 9c3d
000003f0: 3e4d ae3d 54c4 ae3d 5f3b 853d ef74 483d
-0.027127106 0.084558 0.07213753 -0.010749221 0.0064196885 0.03199289 0.022590064 0.024377894
0.12136967 0.041735165 0.123918466 -0.018092478 0.05824471 0.13256063 0.09623838 0.10467846
0.021633465 0.15819462 0.052578174 0.07401069 -0.029696193 0.13034758 -0.039483525 0.08455741
0.072355166 0.048913874 0.060436316 0.102988824 -0.0031296473 0.084340364 -0.03697007 0.164923
0.009841934 -0.0036894886 0.055983927 0.14688388 0.09254608 0.07096985 0.15676585 0.09878562
0.021438928 0.1484927 -0.011874545 0.09730276 0.09779509 0.13068362 0.12569253 0.16180414
0.14447485 0.039692372 -0.05535413 0.099878855 0.15272607 -0.03594209 0.1046921 0.056969184
0.13504769 0.1558278 0.077007145 -0.04556258 0.12159659 0.108351685 0.14956297 -0.032330003
0.03234441 -0.042605605 -0.04202764 0.098601654 0.011082803 0.10108922 0.12403211 -0.042994227
0.061366603 -0.061257258 0.059027933 0.17169046 0.03105604 -0.06382717 0.04041863 0.024631055
0.1143327 0.041600954 0.11966059 0.036856495 0.15756153 0.12691715 0.120239094 0.041839775
0.025633197 0.14970128 0.0027891707 0.17978948 0.11598832 0.1358103 0.034688678 0.060648855
0.12134927 0.073297426 0.040021162 0.015885007 0.1061123 0.07084396 0.016893847 0.047773596
0.016108565 0.15487519 -0.0037050443 -0.030934667 0.12715127 0.10761143 0.08832454 0.06685768
0.15885718 -0.046121188 0.074943095 0.073696405 0.059697118 0.069484845 0.043916866 0.09080653
0.09981598 -0.0006320481 0.051176086 0.030711979 0.102536365 0.13693629 0.09889477 0.0003836664
-0.019807931 0.07657157 0.06529995 0.12278083 0.103965506 0.029393375 0.036372516 0.04067285
0.059750613 0.08504265 0.03983992 0.021898571 0.113130085 0.14354005 0.10355651 0.05795766
0.054886255 0.095098704 -0.0037793166 0.0128978295 0.14468375 0.08418249 0.1157497 0.05143143
0.06890972 -0.03717112 0.06346627 0.011830443 0.10845338 0.1421494 0.13295609 0.14255719
0.12261448 0.15469776 0.087821364 0.13385253 0.05780236 0.065672904 0.08726099 0.0039226166
0.062183987 0.15913697 0.09838069 0.060129233 0.17186876 0.041245684 0.057894424 0.074953936
0.08958543 0.045999534 0.09169489 0.076775275 0.093471184 0.07005968 0.0959585 0.07827988
0.08373566 -0.045438588 0.04390143 0.07549429 0.043362822 0.138228 -0.033950966 0.08657152
-0.028451875 0.062314298 0.14931987 0.014218864 -0.07615871 0.07184302 -0.05049691 0.07787269
0.08465668 0.08825004 0.06394247 0.15177186 0.12452 0.06596326 0.0931948 0.083277375
0.04991564 0.008000357 0.061951224 0.065579906 0.047668554 0.099423595 0.08417862 0.07812877
0.050455585 0.122255266 0.054627128 0.011775151 0.10832998 -0.032285277 0.03609726 0.003173258
0.0010975667 0.10050512 -0.024310218 0.033046085 0.08030597 0.05791239 0.13237107 0.15236986
0.056543533 -0.027025038 0.04056665 0.12399103 0.1762337 0.021009441 0.056457482 -0.04826465
0.015535669 -0.08000819 0.09967041 0.074943356 0.12639396 0.13048974 0.007537258 0.06794906
-0.057761583 -0.048089348 0.13789527 0.0763649 0.085108265 0.0853354 0.06505465 0.04893964

bias f4 [256]
00000000: f15a ac3d 5c4c 1a3c 2af1 36bd 2e7e 1f3e
00000010: 3b42 8d3d 79c2 263e 5f22 323e 2ac3 fa3d
00000020: f538 073e 1a2e c93d 60f8 333d 0e54 d53d
00000030: 4565 293e 77d7 bf3d c1af 973d 18ee cfbc
00000040: 0c48 82bd 3ded 363e d388 463d b2b7 e33d
00000050: e2bd 403e 0794 333e 0cf2 233e d8a2 da3d
00000060: f753 6d3d 10b4 05bd 8bd0 243d f886 3e3e
00000070: 7282 34bd d4a7 42bd d50e b23d e033 8abd
00000080: 3de1 a33d 7f60 7b3a 403a f2bc aa1f fa3a
00000090: b12c 30bc 8b99 5abc 689d 633c 71f7 1b3e
000000a0: 8947 9b3c 9ea8 093e 8234 6fbd 3592 8f3d
000000b0: 5a30 d83c 63cc 363e 31ec 063e 57ae 8dbd
000000c0: 1110 c93d aadf 323e 69b7 e9bb bdec 2cbd
000000d0: 45c9 393e 50ec 983d 9956 87bd a3c6 b83d
000000e0: b854 163e 097c 5ebd af47 9b3d f328 0dbd
000000f0: 9e37 223e c504 343e 18a7 083e 9b52 043e
00000100: ebf6 e7bc e9ad 1dbd 6636 dc3c d190 b1bc
00000110: 5d3e 803d e1a5 333d 9809 853d e60e 00bc
00000120: fede cc3c 1053 d1bb aeb2 8c3d 4263 8e3d
00000130: ee94 b43c 8084 013e cb3c e5bc 1317 aa3c
00000140: c746 113e 4064 163d 5501 103e c5d6 bf3c
00000150: 5456 8bbd 8c8d a43d cd3b 933c eb36 fc3d
00000160: dda4 1a3e 4eb2 903c 0f76 233e ccdb 8b3d
00000170: 0093 243e 3592 0e3e 2beb eebc bec6 13bd
00000180: f0e1 c9bc 29b8 89bd 1eaf 3dbd 3967 163e
00000190: f163 943d b477 313d 35b9 34bd d55f 323e
000001a0: 92a9 5e3d 942b 7b3d b7cc 96bc 7c4a 193e
000001b0: d41f 8abd b171 70bd 5a64 a33d 18d9 d73d
000001c0: cebe 2e3e 1652 793d db5f 353c b359 003e
000001d0: 566c bc3c 6cca 9bbd 9122 503c 8af3 203e
000001e0: eec1 a63c 007f 69ba bd6a 7cbd 0c0a 0d3d
000001f0: 2a25 363e ff7b 0d3e 3efd ae3d a7de 7fbd
00000200: 1375 773d bef9 78bd 8c77 86bd 52be c13d
00000210: da70 7ebd 9868 78bd 1a89 f73c ce9b 843d
00000220: 42ba bc3b dc6e 133e f475 32bd 72ee c03d
00000230: dfb1 363e 9e3b 49bd 8e40 393e fc3b 983d
00000240: 6aef 8fbd b843 183e 3104 0d3e f45f bc3d
00000250: a080 ca3c 6c42 bd3d cf61 f53d 5b00 863d
00000260: d82c 1cbd 50dc 553d e6c3 1c3e d5c6 073e
00000270: 874a 87bd 32ea 0cbb 24dd e63d 0bf4 213e
00000280: f6a2 073e 5958 393e f452 ce3d 16ea 7abd
00000290: 10c1 073d 0f9f 3b3c 210a c33d 4804 3b3e
000002a0: dcb0 253e 727d 88bc 2631 48bd fee8 ef3d
000002b0: aefc 173b 98cc 163e 7bee efbc 810a 1c3e
000002c0: 0135 12bd a5f6 49bb ae19 8d3d 7c77 2d3e
000002d0: 5a27 363c 95fd f8bb b049 6ebd 5c6a 27bd
000002e0: d358 ea3c 9e5c 1dbd 9fb3 6bbd 9d66 b23c
000002f0: f9ca 183c 8103 0f3d 7199 6cbb 4904 783d
00000300: 7541 ca3d c355 0abb c91d 2cbd e4cf 093e
00000310: 4538 f63c afc9 2b3e 6d58 8fbd 1e18 e73d
00000320: d0b3 0c3e 8f6b 973c 5743 80bd e59a b13c
00000330: 0645 213e ad08 97bc 2f15 a7bc 4a4b 053e
00000340: f445 a13d d39b 923d 8e39 3cbd e28c 2a3e
00000350: 7fa2 1d3e 00aa 253e 7b02 f3bc 91b2 e43d
00000360: 3a43 0f3d 1109 34bd e91d 0b3d 7236 223e
00000370: 54b0 2c3e 5daf 153e a9e3 46bd 1f06 3a3e
00000380: f2ef bd3d 5299 193d 8eb2 133e 1c31 1abd
00000390: 4a23 94bd 03d2 093d fb6a 39bd 985c 073e
000003a0: 4720 123d 3f10 b03a 394d 1e3e d541 773d
000003b0: 348c 66bc b851 06bc 2ac2 bb3c be6c 023e
000003c0: ec92 153e 54be 263e 8270 26bd d034 e33b
000003d0: 4796 3a3d f9c1 293e 03df 953d 18a9 0c3e
000003e0: 489b 953d f7c0 7ebd c770 1cbd 9576 013e
000003f0: bdcc 4f3d 19af 2abd e6cb 833d 5201 e43c
0.08415783 0.00941762 -0.044663586 0.15575477 0.06897398 0.16285123 0.17395924 0.12244256
0.13205321 0.09823246 0.04393804 0.10416423 0.16542538 0.093672685 0.07406569 -0.025382087
-0.06361398 0.17863937 0.04847033 0.111190215 0.18822435 0.17536937 0.16010302 0.10675591
0.057941403 -0.032642424 0.040237945 0.18606174 -0.044069715 -0.047523335 0.08694235 -0.067481756
0.08001945 0.0009589269 -0.029568791 0.0019082923 -0.010752843 -0.013342272 0.013892509 0.1523111
0.018955009 0.13443229 -0.058399685 0.07010309 0.026390243 0.17851405 0.13176037 -0.06918018
0.098175175 0.17468134 -0.00713246 -0.04221796 0.18143184 0.07466948 -0.06608314 0.09022262
0.14680755 -0.054317508 0.07582032 -0.03446288 0.15841529 0.17579944 0.13344991 0.12922136
-0.028315982 -0.03849593 0.026881408 -0.0216755 0.06261895 0.043859366 0.064959705 -0.007816052
0.025008675 -0.0063880756 0.06870018 0.06952526 0.022043671 0.12648201 -0.02798309 0.020762956
0.14187156 0.0367167 0.14063008 0.02341784 -0.06803575 0.080348104 0.017972851 0.12315162
0.15101953 0.017663147 0.15963005 0.06829032 0.16071701 0.13922961 -0.029164871 -0.036078207
-0.024643868 -0.06724579 -0.046309583 0.14687814 0.07245625 0.04332705 -0.04412194 0.1741937
0.054360934 0.061320856 -0.018408163 0.1496982 -0.06744352 -0.058702175 0.07978125 0.10539454
0.17064974 0.0608693 0.011070217 0.12534218 0.023000877 -0.07606968 0.012703554 0.15717903
0.020356145 -0.0008907169 -0.06162523 0.03443341 0.17787614 0.13816832 0.08544396 -0.062468197
0.060414385 -0.060785048 -0.065657705 0.09460129 -0.062119342 -0.060646623 0.030216742 0.0647503
0.0057595083 0.14397758 -0.04356952 0.0942048 0.1784129 -0.04912912 0.18091032 0.07433316
-0.070280865 0.14869583 0.1377113 0.09197989 0.024719536 0.092411846 0.11981546 0.065430366
-0.038128704 0.05221206 0.15309104 0.13259442 -0.06606012 -0.0021501896 0.11272648 0.15815751
0.13245758 0.18100108 0.10074416 -0.061258398 0.033143103 0.011451497 0.09523416 0.18263352
0.16180748 -0.01666138 -0.048874997 0.117143616 0.002319138 0.14726484 -0.029288521 0.15238382
-0.03569508 -0.0030817178 0.06889664 0.16940111 0.011117781 -0.0075985887 -0.058175743 -0.040872917
0.028606808 -0.038418405 -0.057544347 0.021777445 0.009325736 0.03491545 -0.00361022 0.06055096
0.09875766 -0.0021108247 -0.042020593 0.1345821 0.030056128 0.16776155 -0.06999288 0.11283897
0.13740468 0.018483905 -0.06262844 0.021680305 0.15748987 -0.018436754 -0.020395843 0.13017002
0.078746706 0.07158627 -0.045953326 0.16655305 0.15394019 0.16178131 -0.029664269 0.11166871
0.03497622 -0.04395396 0.03396407 0.15841082 0.16864139 0.14617677 -0.048556957 0.18166398
0.092742816 0.037499733 0.14423582 -0.03764449 -0.07233293 0.03364755 -0.04526804 0.13218915
0.035675313 0.0013432576 0.15459146 0.060365517 -0.014071513 -0.008198194 0.022919733 0.12736794
0.14606827 0.16283542 -0.04063464 0.006933786 0.045553472 0.16577901 0.07317927 0.13736379
0.07305008 -0.062195744 -0.03819349 0.12642892 0.050732363 -0.041670892 0.06435375 0.02783266

weight f4 [1, 256]
00000000: 7a56 183e 86a1 92bc 0121 87bc c186 e43d
00000010: ff78 c53d 4f32 023e 2fca c63d 238e c63d
00000020: 747a ed3d 144d 003e 3a88 e1bc 3627 ca3d
00000030: 24ed c53d d710 0d3e d524 093e c622 043b
00000040: 035a ddbc 5cca 073e 9f8d bdbc 2417 093e
00000050: e269 dd3d 60b6 ec3d 111e 0c3e 5340 233e
00000060: 4b76 0d3e f4ce 433d e152 97bc 7957 d93d
00000070: c1e2 8bbc 027d 53bd e5ad ef3d f412 43bd
00000080: 129b 053e 96e2 05bd c4d4 3cbb 9ead f7bb
00000090: 8d27 0fbd 2215 09bd 9b81 bebc c51f d13d
000000a0: 4c07 7cbc e1f9 dc3d c01a 79bd 7f49 033e
000000b0: 0c15 0bbc 29e2 c33d 8616 163e c4f8 4ebd
000000c0: 2985 153e 2581 193e f153 cc3b 5f23 a5ba
000000d0: 8823 d73d d07d 163e d080 153c 8d97 f83d
000000e0: 4809 9c3d 8194 38bd 9015 d63d 6d63 60bc
000000f0: 5546 fe3d 4412 d83d 6475 ec3d d4b5 1e3e
00000100: d195 0cbd 5cb7 58bd 1bd0 1dbd f5f9 acbc
00000110: 9da2 163e bfe0 14bb b86b 023e 70d8 0abd
00000120: b9b5 6dbc 0854 ad3c 00cc f53d 2ecf ed3d
00000130: 358a c8bc bfb4 e53d aaf2 13bd 040e 10bc
00000140: b183 f53d ffe4 0fbc f037 c33d d754 18bd
00000150: 2626 a8bc 3a0f 053e f787 59bd 7e0a c93d
00000160: 1b56 173e 851f c7bc ce11 0f3e f334 173e
00000170: 90e8 d63d 282d 143e 3380 a9bc baff 8d3b
00000180: 05ac 1abd d0d9 c9bc c0b8 4abd c78e fa3d
00000190: a79d ea3d 6688 99bc 3a4e 37bd 3660 fd3d
000001a0: 2c05 143e 7c30 f73d 598c 24bc ee10 0e3e
000001b0: 9af0 0bbd 612f 7abc 2d93 c63d 81e3 ea3d
000001c0: c855 173e 7c38 163e 493d 1bbd be77 223e
000001d0: fe1a a93a 8b2c 67bc eec2 ddbc beee 1e3e
000001e0: dc1e 38bd 682d 083d d068 eabc f267 16bd
000001f0: 290c c83d 70cf f73d a633 d43d e027 3d3b
00000200: 4386 fe3d 58fd a9bc 70c5 4dbd c273 f03d
00000210: 95ec d1bb 1b41 e4bc 77b6 75bc 04b5 fb3d
00000220: dcd7 14bd b0c5 f63d 400c 5abd 87a8 fb3d
00000230: fe4b e73d 4b39 23bd deb5 cb3d fe96 153e
00000240: f221 f7bc 0680 013e 1388 f33d 8f1e 193e
00000250: 0f50 c2bc fc86 0e3e 7ae0 f03d ae03 e33d
00000260: b097 9f3b e836 0a3e 8554 063e de33 c73d
00000270: ce97 29bd 54e0 5cbb 8e8a 1c3e 06f9 1a3e
00000280: dd38 de3d f227 d03d fcc6 173e 5378 86bc
00000290: a089 20bd 85fc 653b 8725 eb3d 140e e13d
000002a0: 4056 1c3e 22e9 e6bb fa87 f2bc 2b3d 053e
000002b0: a44a 7cba 2181 c93d 4047 47bd 903b c83d
000002c0: 7128 10bd 67f5 79bc 38a4 b03d 8b41 1e3e
000002d0: 3e5d 24bd fd4a 4bbc e253 10bd aee3 05bd
000002e0: d83c fcbc a2cf 6cbd d775 0ebc c107 56bd
000002f0: cf59 d5bc dbb1 00bd afa3 a6bb 11f1 c23d
00000300: 1a8d ce3d c15e 2ebd 2689 4abd 801c 023e
00000310: ca0e 85bb 392b 043e e47b f7bb 6687 133e
00000320: 4532 153e 6410 38bd 8b78 97bc d83d 06bc
00000330: a658 ca3d 5336 17bd 4184 2fbd 3abb f73d
00000340: 6bc6 1b3e 5ead fd3d e575 fbbc a90e de3d
00000350: f094 113e 1830 1c3e 2cda 70bc b811 013e
00000360: 5d4b 4ebc 79f1 37bd e17e eaba c411 013e
00000370: 77f8 ec3d 1a7b d43d fdb2 63bc f1e9 0b3e
00000380: 3e87 053e ded8 cabc 140c d43d 671f 703b
00000390: cf20 3fbc c031 abbc 3d28 32bd fb69 133e
000003a0: e641 07bd 49f1 1abd 02e7 103e 36de 103e
000003b0: fe47 8f3b 89db 11bc 4ac0 a1bb 4bb3 f53d
000003c0: 7a61 fc3d 7f1c 0b3e 6633 0dbc 0b95 8f3b
000003d0: d032 81bb 3586 013e 9508 083e d964 d83d
000003e0: e1c9 e93d 9fae 04bd 15c4 84bc 2242 dc3d
000003f0: e3a0 43bd f788 353a 5b23 093e 0879 57bc
0.14876738 -0.017899286 -0.01649523 0.11158515 0.09642219 0.12714504 0.09706532 0.09695079
0.11595622 0.12529403 -0.027530778 0.0987076 0.096643716 0.13775955 0.13392957 0.0020162328
-0.02702046 0.13260788 -0.02313882 0.13387734 0.10811211 0.11558223 0.13683344 0.15942506
0.13814656 0.047804788 -0.018472137 0.10612387 -0.017075898 -0.05163289 0.117030896 -0.047625497
0.13047436 -0.032686792 -0.0028813342 -0.0075585386 -0.034949828 -0.03346742 -0.02325516 0.10211138
-0.015382599 0.10789848 -0.060816526 0.12821005 -0.008488905 0.09564621 0.1465703 -0.05053021
0.14601578 0.14990671 0.0062355925 -0.0012599042 0.10504824 0.14696431 0.00912495 0.12138281
0.07618958 -0.0450635 0.104533315 -0.01369558 0.124157585 0.10550359 0.11545828 0.1549905
-0.034322564 -0.05290924 -0.038528543 -0.021115283 0.1471047 -0.0022716967 0.12736404 -0.033897817
-0.014508658 0.021158233 0.120018005 0.11611782 -0.024479965 0.11216115 -0.036120094 -0.008792404
0.11988009 -0.008782624 0.095321536 -0.037190285 -0.020526003 0.1299409 -0.05310818 0.09816454
0.1477894 -0.024307022 0.13971636 0.14766292 0.104935765 0.1447035 -0.020691013 0.0043334635
-0.037761707 -0.024639994 -0.049492598 0.12234264 0.11455851 -0.018741798 -0.044752337 0.123718664
0.14455098 0.120697945 -0.010043227 0.13873646 -0.034165002 -0.015270085 0.0969604 0.11469174
0.14778817 0.14669985 -0.037900243 0.1586599 0.0012901721 -0.014109741 -0.027070489 0.1552076
-0.044951305 0.033246428 -0.028614432 -0.036720224 0.09767944 0.121001124 0.10361414 0.0028862879
0.12427952 -0.020750687 -0.05023712 0.11740829 -0.0064063766 -0.027863076 -0.014997116 0.12290385
-0.036338672 0.12049425 -0.05323434 0.122880034 0.11293791 -0.03984956 0.09946798 0.1460838
-0.030167554 0.12646493 0.118911885 0.14953063 -0.023719816 0.1391868 0.117615655 0.11084686
0.0048703775 0.13497508 0.13118179 0.0972669 -0.041404538 -0.0033703046 0.1528723 0.15134057
0.108506896 0.10163869 0.14822 -0.016414797 -0.03919375 0.003509314 0.11481767 0.10989013
0.15267277 -0.0070468346 -0.029605854 0.13011615 -0.00096241594 0.098390825 -0.048651934 0.09776986
-0.035194818 -0.015256262 0.08625072 0.1545469 -0.040127985 -0.012408015 -0.035236247 -0.032687835
-0.030790731 -0.0578152 -0.008695087 -0.05225349 -0.0260438 -0.031419616 -0.0050854306 0.09518636
0.10085507 -0.042570833 -0.0494472 0.12706184 -0.004060601 0.12907113 -0.0075526107 0.14407119
0.14569958 -0.044937506 -0.018490097 -0.008193456 0.098801896 -0.036917042 -0.042850737 0.120962575
0.15212409 0.12386583 -0.030695865 0.1084264 0.14216971 0.15252721 -0.014700454 0.12604415
-0.01259121 -0.04490802 -0.0017890596 0.12604433 0.115708284 0.10375042 -0.013897655 0.1366346
0.13039872 -0.024761613 0.10353866 0.003663981 -0.011665537 -0.020897746 -0.043495405 0.14395897
-0.03302183 -0.037827764 0.14150622 0.14147267 0.004372596 -0.008902439 -0.0049362527 0.11997088
0.1232328 0.13585089 -0.008618211 0.004381781 -0.003942825 0.12648852 0.13284524 0.1056611
0.114154585 -0.032393094 -0.01620678 0.10754801 -0.047760855 0.00069250114 0.13392393 -0.013151415
